_________________________________________________________________  
Layer (type)                 Output Shape              Param #     
=================================================================  
dense_1 (Dense)              (None, 8)                 1696        
_________________________________________________________________  
dense_2 (Dense)              (None, 256)               2304        
_________________________________________________________________  
dense_3 (Dense)              (None, 256)               65792       
_________________________________________________________________  
dense_4 (Dense)              (None, 1)                 257         
=================================================================  
Total params: 70,049   
Trainable params: 70,049                  
Non-trainable params: 0
_________________________________________________________________  
results:               
[0.10064563822102818, 0.14166843501726786]          




_________________________________________________________________  
Layer (type)                 Output Shape              Param #     
=================================================================  
dense_14 (Dense)             (None, 512)               108544      
_________________________________________________________________  
dense_15 (Dense)             (None, 1)                 513         
=================================================================  
Total params: 109,057  
Trainable params: 109,057                 
Non-trainable params: 0
_________________________________________________________________     
results:               
[0.11312724164379881, 0.1674925239013903] 


_________________________________________________________________  
Layer (type)                 Output Shape              Param #     
=================================================================  
dense_16 (Dense)             (None, 128)               27136       
_________________________________________________________________  
dense_17 (Dense)             (None, 1)                 129         
=================================================================  
Total params: 27,265   
Trainable params: 27,265                  
Non-trainable params: 0
_________________________________________________________________ 
results:               
[0.06154968255100312, 0.13282451955399988]


_________________________________________________________________  
Layer (type)                 Output Shape              Param #     
=================================================================  
dense_18 (Dense)             (None, 256)               54272       
_________________________________________________________________  
dense_19 (Dense)             (None, 1)                 257         
=================================================================  
Total params: 54,529   
Trainable params: 54,529                  
Non-trainable params: 0
_________________________________________________________________ 
results:               
[0.11823586613662315, 0.1475966114685649] 



_________________________________________________________________  
Layer (type)                 Output Shape              Param #     
=================================================================  
dense_25 (Dense)             (None, 32)                6784        
_________________________________________________________________  
dense_26 (Dense)             (None, 1)                 33          
=================================================================  
Total params: 6,817    
Trainable params: 6,817
Non-trainable params: 0
_________________________________________________________________  
None      

results:               
[0.08798821699064531, 0.13797745259989908]



_________________________________________________________________  
Layer (type)                 Output Shape              Param #     
=================================================================  
dense_27 (Dense)             (None, 8)                 1696        
_________________________________________________________________  
dense_28 (Dense)             (None, 4)                 36          
_________________________________________________________________  
dropout_4 (Dropout)          (None, 4)                 0           
_________________________________________________________________  
dense_29 (Dense)             (None, 4)                 20          
_________________________________________________________________  
dropout_5 (Dropout)          (None, 4)                 0           
_________________________________________________________________  
dense_30 (Dense)             (None, 4)                 20          
_________________________________________________________________  
dropout_6 (Dropout)          (None, 4)                 0           
_________________________________________________________________  
dense_31 (Dense)             (None, 4)                 20          
_________________________________________________________________  
dropout_7 (Dropout)          (None, 4)                 0           
_________________________________________________________________  
dense_32 (Dense)             (None, 4)                 20          
_________________________________________________________________  
dropout_8 (Dropout)          (None, 4)                 0           
_________________________________________________________________  
dense_33 (Dense)             (None, 4)                 20          
_________________________________________________________________  
dropout_9 (Dropout)          (None, 4)                 0           
_________________________________________________________________  
dense_34 (Dense)             (None, 1)                 5           
=================================================================  
Total params: 1,837    
Trainable params: 1,837
Non-trainable params: 0
_________________________________________________________________  
None        

results:               
[15.63994834490359, 3.229985144280768]    
_________________________________________________________________  
Layer (type)                 Output Shape              Param #     
=================================================================  
dense_35 (Dense)             (None, 8)                 1696        
_________________________________________________________________  
dense_36 (Dense)             (None, 512)               4608        
_________________________________________________________________  
dense_37 (Dense)             (None, 512)               262656      
_________________________________________________________________  
dense_38 (Dense)             (None, 512)               262656      
_________________________________________________________________  
dense_39 (Dense)             (None, 1)                 513         
=================================================================  
Total params: 532,129  
Trainable params: 532,129                 
Non-trainable params: 0
_________________________________________________________________  
None         

results:               
[0.1445482206047065, 0.14630349642296375] 
_________________________________________________________________  
Layer (type)                 Output Shape              Param #     
=================================================================  
dense_40 (Dense)             (None, 4)                 848         
_________________________________________________________________  
dense_41 (Dense)             (None, 1)                 5           
=================================================================  
Total params: 853      
Trainable params: 853  
Non-trainable params: 0
_________________________________________________________________ 
results:               
[0.4688409373450589, 0.5908278029739082]  

_________________________________________________________________  
Layer (type)                 Output Shape              Param #     
=================================================================  
dense_42 (Dense)             (None, 8)                 1696        
_________________________________________________________________  
dense_43 (Dense)             (None, 1)                 9           
=================================================================  
Total params: 1,705    
Trainable params: 1,705
Non-trainable params: 0
_________________________________________________________________  

results:               
[0.11768433444782511, 0.12132664578920835]
_________________________________________________________________  
Layer (type)                 Output Shape              Param #     
=================================================================  
dense_44 (Dense)             (None, 8)                 1696        
_________________________________________________________________  
dense_45 (Dense)             (None, 1)                 9           
=================================================================  
Total params: 1,705    
Trainable params: 1,705
Non-trainable params: 0
_________________________________________________________________ 
results:               
[0.11519633214340194, 0.14441782611660112]

_________________________________________________________________  
Layer (type)                 Output Shape              Param #     
=================================================================  
dense_46 (Dense)             (None, 32)                6784        
_________________________________________________________________  
dense_47 (Dense)             (None, 1)                 33          
=================================================================  
Total params: 6,817    
Trainable params: 6,817
Non-trainable params: 0
_________________________________________________________________  

results:               
[0.11143120925257474, 0.10334186209628592]


_________________________________________________________________  
Layer (type)                 Output Shape              Param #     
=================================================================  
dense_48 (Dense)             (None, 32)                6784        
_________________________________________________________________  
dense_49 (Dense)             (None, 512)               16896       
_________________________________________________________________  
dropout_10 (Dropout)         (None, 512)               0           
_________________________________________________________________  
dense_50 (Dense)             (None, 512)               262656      
_________________________________________________________________  
dropout_11 (Dropout)         (None, 512)               0           
_________________________________________________________________  
dense_51 (Dense)             (None, 1)                 513         
=================================================================  
Total params: 286,849  
Trainable params: 286,849                 
Non-trainable params: 0
_________________________________________________________________  
results:                                                                                                                                                                             
…
